NO GPU
4
Total jobs: 5
{'rotation': 4}
Training:  [4 0 1]
Validation:  2
Testing:  3
Training set has 35978 samples
Validation set has 11987 samples
Testing set has 12000 samples
Model: "sequential"
_________________________________________________________________
 Layer (type)                Output Shape              Param #   
=================================================================
 conv2d (Conv2D)             (None, 126, 126, 8)       224       
                                                                 
 spatial_dropout2d (SpatialD  (None, 126, 126, 8)      0         
 ropout2D)                                                       
                                                                 
 conv2d_1 (Conv2D)           (None, 124, 124, 8)       584       
                                                                 
 spatial_dropout2d_1 (Spatia  (None, 124, 124, 8)      0         
 lDropout2D)                                                     
                                                                 
 max_pooling2d (MaxPooling2D  (None, 62, 62, 8)        0         
 )                                                               
                                                                 
 conv2d_2 (Conv2D)           (None, 60, 60, 16)        1168      
                                                                 
 spatial_dropout2d_2 (Spatia  (None, 60, 60, 16)       0         
 lDropout2D)                                                     
                                                                 
 conv2d_3 (Conv2D)           (None, 58, 58, 16)        2320      
                                                                 
 spatial_dropout2d_3 (Spatia  (None, 58, 58, 16)       0         
 lDropout2D)                                                     
                                                                 
 max_pooling2d_1 (MaxPooling  (None, 29, 29, 16)       0         
 2D)                                                             
                                                                 
 conv2d_4 (Conv2D)           (None, 27, 27, 32)        4640      
                                                                 
 spatial_dropout2d_4 (Spatia  (None, 27, 27, 32)       0         
 lDropout2D)                                                     
                                                                 
 conv2d_5 (Conv2D)           (None, 25, 25, 32)        9248      
                                                                 
 spatial_dropout2d_5 (Spatia  (None, 25, 25, 32)       0         
 lDropout2D)                                                     
                                                                 
 max_pooling2d_2 (MaxPooling  (None, 12, 12, 32)       0         
 2D)                                                             
                                                                 
 conv2d_6 (Conv2D)           (None, 10, 10, 48)        13872     
                                                                 
 spatial_dropout2d_6 (Spatia  (None, 10, 10, 48)       0         
 lDropout2D)                                                     
                                                                 
 conv2d_7 (Conv2D)           (None, 8, 8, 64)          27712     
                                                                 
 spatial_dropout2d_7 (Spatia  (None, 8, 8, 64)         0         
 lDropout2D)                                                     
                                                                 
 conv2d_8 (Conv2D)           (None, 6, 6, 80)          46160     
                                                                 
 spatial_dropout2d_8 (Spatia  (None, 6, 6, 80)         0         
 lDropout2D)                                                     
                                                                 
 global_max_pooling2d (Globa  (None, 80)               0         
 lMaxPooling2D)                                                  
                                                                 
 dense (Dense)               (None, 128)               10368     
                                                                 
 dropout (Dropout)           (None, 128)               0         
                                                                 
 dense_1 (Dense)             (None, 16)                2064      
                                                                 
 dropout_1 (Dropout)         (None, 16)                0         
                                                                 
 dense_2 (Dense)             (None, 4)                 64        
                                                                 
=================================================================
Total params: 118,424
Trainable params: 118,424
Non-trainable params: 0
_________________________________________________________________
None
Namespace(check=False, nogo=False, verbose=1, cpus_per_task=10, gpu=False, exp_type=None, label=None, dataset='/home
…
