NO GPU
4
Total jobs: 5
{'rotation': 4}
Training:  [4 0 1]
Validation:  2
Testing:  3
Training set has 35978 samples
Validation set has 11987 samples
Testing set has 12000 samples
Model: "sequential"
_________________________________________________________________
 Layer (type)                Output Shape              Param #   
=================================================================
 conv2d (Conv2D)             (None, 126, 126, 16)      448       
                                                                 
 max_pooling2d (MaxPooling2D  (None, 63, 63, 16)       0         
 )                                                               
                                                                 
 conv2d_1 (Conv2D)           (None, 61, 61, 32)        4640      
                                                                 
 max_pooling2d_1 (MaxPooling  (None, 30, 30, 32)       0         
 2D)                                                             
                                                                 
 conv2d_2 (Conv2D)           (None, 28, 28, 64)        18496     
                                                                 
 max_pooling2d_2 (MaxPooling  (None, 14, 14, 64)       0         
 2D)                                                             
                                                                 
 global_max_pooling2d (Globa  (None, 64)               0         
 lMaxPooling2D)                                                  
                                                                 
 dense (Dense)               (None, 64)                4160      
                                                                 
 dropout (Dropout)           (None, 64)                0         
                                                                 
 dense_1 (Dense)             (None, 16)                1040      
                                                                 
 dropout_1 (Dropout)         (None, 16)                0         
                                                                 
 dense_2 (Dense)             (None, 4)                 64        
                                                                 
=================================================================
Total params: 28,848
Trainable params: 28,848
Non-trainable params: 0
_________________________________________________________________
None
Namespace(check=False, nogo=False, verbose=1, cpus_per_task=10, gpu=False, exp_type=None, label=None, dataset='/home/f
…
