NO GPU
3
Total jobs: 5
{'rotation': 3}
Training:  [3 4 0]
Validation:  1
Testing:  2
Training set has 35980 samples
Validation set has 11998 samples
Testing set has 11987 samples
Model: "sequential"
_________________________________________________________________
 Layer (type)                Output Shape              Param #   
=================================================================
 conv2d (Conv2D)             (None, 126, 126, 10)      280       
                                                                 
 spatial_dropout2d (SpatialD  (None, 126, 126, 10)     0         
 ropout2D)                                                       
                                                                 
 max_pooling2d (MaxPooling2D  (None, 63, 63, 10)       0         
 )                                                               
                                                                 
 conv2d_1 (Conv2D)           (None, 61, 61, 20)        1820      
                                                                 
 spatial_dropout2d_1 (Spatia  (None, 61, 61, 20)       0         
 lDropout2D)                                                     
                                                                 
 max_pooling2d_1 (MaxPooling  (None, 30, 30, 20)       0         
 2D)                                                             
                                                                 
 conv2d_2 (Conv2D)           (None, 28, 28, 30)        5430      
                                                                 
 spatial_dropout2d_2 (Spatia  (None, 28, 28, 30)       0         
 lDropout2D)                                                     
                                                                 
 max_pooling2d_2 (MaxPooling  (None, 14, 14, 30)       0         
 2D)                                                             
                                                                 
 conv2d_3 (Conv2D)           (None, 12, 12, 40)        10840     
                                                                 
 spatial_dropout2d_3 (Spatia  (None, 12, 12, 40)       0         
 lDropout2D)                                                     
                                                                 
 max_pooling2d_3 (MaxPooling  (None, 6, 6, 40)         0         
 2D)                                                             
                                                                 
 conv2d_4 (Conv2D)           (None, 4, 4, 50)          18050     
                                                                 
 spatial_dropout2d_4 (Spatia  (None, 4, 4, 50)         0         
 lDropout2D)                                                     
                                                                 
 max_pooling2d_4 (MaxPooling  (None, 2, 2, 50)         0         
 2D)                                                             
                                                                 
 global_max_pooling2d (Globa  (None, 50)               0         
 lMaxPooling2D)                                                  
                                                                 
 dense (Dense)               (None, 50)                2550      
                                                                 
 dropout (Dropout)           (None, 50)                0         
                                                                 
 dense_1 (Dense)             (None, 20)                1020      
                                                                 
 dropout_1 (Dropout)         (None, 20)                0         
                                                                 
 dense_2 (Dense)             (None, 4)                 80        
                                                                 
=================================================================
Total params: 40,070
Trainable params: 40,070
Non-trainable params: 0
_________________________________________________________________
None
Namespace(check=False, nogo=False, verbose=1, cpus_per_task=10, gpu=False, exp_type=None, label=None, dataset='/home/f
…
